model.pth (torch, 17686 bytes, 18 tensors)

input_size.weight f4 [10, 66]
0	0x3eb65409	0.3561099
1	0x3f3a1274	0.7268441
2	0xbda1ee6f	-0.07906806
3	0x3f5be58e	0.8589715
4	0x3e99c913	0.3003622
5	0x3edbb1c1	0.42909053
6	0xbf0ba3b9	-0.54546696
7	0x3f0649ca	0.52456343
8	0x3d74e1d5	0.059785683
9	0x3eb32ce1	0.34995177
10	0xbebf44fe	-0.37357324
11	0x3f3c4a3b	0.73550767
12	0x3f4965ce	0.78670967
13	0xbf0a6259	-0.54056317
14	0x3f3cbcc4	0.73725533
15	0x3eabf68e	0.33586544
16	0xbebf4ae1	-0.37361816
17	0x3e488c74	0.19584829
18	0xbf01c32e	-0.50688446
19	0x3f280ef2	0.65647805
20	0xbde4f60d	-0.11179743
21	0x3ed977b1	0.4247413
22	0xbd492d24	-0.049115315
23	0xbe946aeb	-0.28987822
24	0x3f0adbf7	0.5424189
25	0x3d8e262e	0.06940876
26	0x3f2f1751	0.68394953
27	0x3f141566	0.5784515
28	0xbe48c79a	-0.19607392
29	0x3e6f1ea2	0.23351529
30	0x3e5ce6e2	0.2157245
31	0x3e946c48	0.28988862
32	0xbed4536a	-0.4146989
33	0x3f265da2	0.6498662
34	0xbe945d61	-0.28977492
35	0x3f0cb99a	0.54970706
36	0x3d8036b6	0.06260435
37	0xbe9224af	-0.28543612
38	0x3ce4bdca	0.02792253
39	0x3f55daee	0.83537185
40	0x3f370924	0.7149832
41	0xbd2b5aa0	-0.041834474
42	0xbe963614	-0.29338133
43	0x3f2f65ec	0.68514895
44	0xbe93d9a9	-0.28877
45	0x3f308daa	0.6896616
46	0x3f5058cf	0.8138551
47	0x3d699cdc	0.05703436
48	0x3d7736d6	0.06035503
49	0xbf32dd39	-0.6986881
50	0x3e5b1684	0.21395308
51	0xbeacba73	-0.33736
52	0x3f279722	0.65464985
53	0x3e901b0b	0.28145632
54	0x3f2fc534	0.68660283
55	0x3e40a044	0.18811136
56	0xbd1f8977	-0.038949456
57	0x3eb2d8fd	0.34931174
58	0xbee0d575	-0.43912855
59	0xbf368bd9	-0.7130714
60	0xbec9fa8c	-0.39448965
61	0x3dcab29c	0.09897348
62	0x3dee3520	0.116312265
63	0x3e7ef202	0.24897006
64	0xbe3a6b2b	-0.18204944
65	0x3eb279d0	0.3485856
66	0x3f355deb	0.7084643
67	0x3d5a3f9e	0.053283326
68	0xbe82f720	-0.25579166
69	0x3dd356f4	0.10319319
70	0xbecfcb0e	-0.40584606
71	0x3f0b6027	0.5444359
72	0x3e83b9a7	0.2572758
73	0x3eb27d34	0.34861147
74	0x3dd329c4	0.103107005
75	0xbf0d05f5	-0.55087215
76	0xbe009353	-0.125562
77	0x3d22692b	0.039651077
78	0xbe3e54ae	-0.1858699
79	0x3ea98955	0.3311259
80	0x3da6ddce	0.08147775
81	0xbeacdf73	-0.33764228
82	0xbe96bcb7	-0.29440853
83	0xbec4d0f1	-0.3844066
84	0xbdee36f3	-0.116315745
85	0xbde2b604	-0.11069873
86	0xbe2bea17	-0.16788517
87	0xbe7982b9	-0.24366273
88	0xbcf27350	-0.029596
89	0x3e3f8e8a	0.18706718
90	0xbf0d5e0d	-0.55221635
91	0x3effb2b1	0.49941018
92	0xbf1892a0	-0.5959873
93	0xbf16d3b0	-0.5891676
94	0x3e9a8fcc	0.30187833
95	0xbf55650f	-0.8335733
96	0x3ce88d59	0.028387712
97	0xbe673973	-0.22580509
98	0x3e8cd9e3	0.27509984
99	0xbe790a80	-0.24320412
100	0x3e9c056c	0.30472887
101	0xbe8b0a49	-0.27156284
102	0xbe03796c	-0.12839288
103	0x3d7cf020	0.06175244
104	0x3e5c6a1d	0.21524854
105	0x3e2351be	0.15949151
106	0xbeac9cc8	-0.33713365
107	0xbdecab55	-0.115561165
108	0x3e176c34	0.1478737
109	0xbe2697d9	-0.16268863
110	0x3edcd084	0.43127835
111	0xbdea8dab	-0.11452802
112	0xbe059513	-0.13045149
113	0xbd296e7e	-0.04136514
114	0x3d336ac9	0.04380301
115	0xbd62f0e6	-0.05540552
116	0xbbed015c	-0.007232828
117	0xbd90a066	-0.070618436
118	0x3caeeaa8	0.021352127
119	0x3dae5241	0.085117824
120	0xbea09b2a	-0.3136838
121	0x3f8c10eb	1.0942663
122	0x3eb5f3c4	0.3553754
123	0x3d14b876	0.03630873
124	0xbda8d31e	-0.082433924
125	0x3eace8f2	0.33771473
126	0x3eb2ce4d	0.3492302
127	0x3f8208de	1.0158956
128	0x3e2dd021	0.16973926
129	0x3ed7f43b	0.4217852
130	0x3edf3df4	0.43601954
131	0xbdd64cad	-0.104638435
132	0x3eae3dfe	0.3403167
133	0xbec7cc60	-0.39023113
134	0x3f6a9145	0.91627914
135	0xbf370622	-0.7149373
136	0xbddcbbc9	-0.10778005
137	0x3e642ca7	0.22282659
138	0xbed9080c	-0.42388952
139	0x3ece210b	0.40259585
140	0xbe760a52	-0.24027374
141	0x3eb42f34	0.35192263
142	0x3f29b00d	0.6628426
143	0xbf72997c	-0.9476545
144	0xbed61a50	-0.4181695
145	0x3d4c2c47	0.049846914
146	0xbf57ec14	-0.843446
147	0xbc9f2615	-0.019427339
148	0x3f00291a	0.50062716
149	0x3f325ed5	0.6967595
150	0x3f24fc5a	0.6444756
151	0xbed7223d	-0.4201831
152	0x3efd5ccb	0.49484858
153	0xbd87c4f8	-0.06629366
154	0xbdd60525	-0.104502
155	0x3ee27d16	0.44236058
156	0xbe2cd910	-0.16879678
157	0xbead930c	-0.3390125
158	0xbe02324e	-0.12714502
159	0xbe81361c	-0.25236595
160	0xbeb3a763	-0.35088643
161	0x3e42deff	0.19030379
162	0x3ea7a7f8	0.32745337
163	0xbe42c54c	-0.19020575
164	0x3ee566ca	0.44804984
165	0xbf19e08a	-0.60108244
166	0x3e695c93	0.2278922
167	0xbed8c3c0	-0.42336845
168	0xbe23f7ad	-0.1601245
169	0x3f1fc125	0.6240409
170	0xbe05b988	-0.13059056
171	0xbf332f97	-0.6999449
172	0x3ee8bc5c	0.45456207
173	0x3f0e3852	0.5555469
174	0x3eb99013	0.36242732
175	0xbf05cef7	-0.5226893
176	0xbeabae5a	-0.33531457
177	0xbec43cde	-0.38327688
178	0xbeefbe16	-0.46824712
179	0x3ef6fa3c	0.4823779
180	0xbe34ff70	-0.17675567
181	0x3eda0ff1	0.42590287
182	0x3f09f608	0.5389104
183	0x3f161166	0.586203
184	0xbf029947	-0.5101513
185	0x3ecc1d68	0.39866185
186	0x3ed6eed8	0.41979098
187	0xbef03ae1	-0.4691992
188	0xbec27dfd	-0.37986746
189	0x3e717232	0.23578718
190	0x3f690790	0.91027164
191	0x3b16423d	0.0022927665
192	0x3eaeea8e	0.34163326
193	0x3f6c86de	0.9239329
194	0xbe70e335	-0.23524173
195	0x3e9efff2	0.31054646
196	0x3eb13c3b	0.34616265
197	0x3f559980	0.8343735
198	0xbf39053e	-0.72273624
199	0xbe6d3531	-0.23164822
200	0xbdba63a6	-0.09101038
201	0xbefb1781	-0.4904137
202	0xbe77fa60	-0.24216604
203	0xbdbcae5c	-0.09212944
204	0x3f096184	0.5366442
205	0xbf346a70	-0.7047491
206	0x3f21f628	0.6326623
207	0xbeb7cb4b	-0.35897288
208	0x3ea47196	0.3211791
209	0xbe8baefb	-0.27281937
210	0xbec78aad	-0.3897299
211	0x3f052d2d	0.5202206
212	0xbeb8af6f	-0.36071345
213	0xbe82944b	-0.25503764
214	0xbefde917	-0.49591896
215	0x3e1f6ef6	0.15569672
216	0x3dbb5956	0.09147899
217	0xbe73e615	-0.23818238
218	0xbeb364a6	-0.35037726
219	0xbebbf0a4	-0.36707032
220	0x3d14e3f4	0.036350206
221	0x3eb1849f	0.34671494
222	0xbf27fd6e	-0.6562108
223	0xbd935f2e	-0.071958885
224	0xbf188518	-0.59578085
225	0xbf27ccc0	-0.655468
226	0x3ef4980c	0.47772253
227	0xbf0bbc35	-0.54584056
228	0x3ea92e27	0.33043024
229	0xbe906afc	-0.28206623
230	0x3f0050e9	0.5012346
231	0xbe23243d	-0.15931793
232	0x3e97d843	0.29657182
233	0xbe6b57f0	-0.22982764
234	0x3f126e1b	0.5719926
235	0xbd799d84	-0.060941234
236	0xbc4db7c8	-0.012556024
237	0xbed61590	-0.41813326
238	0xbdfde259	-0.12396688
239	0xbe9a6b7b	-0.30160126
240	0x3e758ccd	0.23979492
241	0xbe8abf3d	-0.27099028
242	0x3ee120e8	0.43970418
243	0xbef7bdbf	-0.48386952
244	0xbebec2c7	-0.37257978
245	0xbec83f91	-0.39110997
246	0x3edd36ec	0.43205965
247	0x3f54b43f	0.83087534
248	0xbeac782b	-0.3368543
249	0x3d0bd178	0.03413531
250	0xbe1c6bce	-0.15275499
251	0xbe8ce4d1	-0.27518323
252	0xbe527cd2	-0.20555428
253	0xbf3898b8	-0.7210803
254	0x3d84b190	0.0647918
255	0x3d4700d9	0.048584793

input_size.bias f4 [10]
0	0x3f343970	0.7040014
1	0x3f189402	0.5960084
2	0x3ed0a176	0.40748185
3	0x3f386f0d	0.7204445
4	0x3f29f6d7	0.6639227
5	0x3f3edab9	0.74552494
6	0x3f2b8e4b	0.67013997
7	0x3f52356b	0.8211276
8	0x3e7ce635	0.24697192
9	0x3f1bdb0a	0.608811

hidden_size.weight f4 [10, 10]
0	0x3f27ce43	0.65549105
1	0xbf2f2393	-0.68413657
2	0x3f71d8b4	0.9447129
3	0x3f69e546	0.9136547
4	0xbeaf01e2	-0.34181124
5	0x3f96abb8	1.1771154
6	0x3f9788e4	1.1838651
7	0x3f9f89a0	1.2463875
8	0xbf8a02c1	-1.078209
9	0x3f6ad6a9	0.91733795
10	0x3ee32e19	0.44371107
11	0x3ef47ef1	0.477531
12	0xbf7a09e6	-0.97671354
13	0x3eb63bc0	0.3559246
14	0x3f3040e2	0.68849003
15	0x3f8e53ce	1.1119325
16	0xbe29f071	-0.16595627
17	0x3d9bbb99	0.07604141
18	0x3e74cacd	0.23905487
19	0xbd31b1b4	-0.04338236
20	0xbe89f52c	-0.26944864
21	0x3ac02300	0.0014658868
22	0xbd97efea	-0.07418807
23	0xbe8d8161	-0.2763777
24	0x3e2ca688	0.16860402
25	0xbe4da3eb	-0.20082061
26	0xbe976612	-0.2957006
27	0xbe400af1	-0.18754174
28	0xbe30ea01	-0.17276765
29	0x3e89263d	0.26786986
30	0xbf812666	-1.0089843
31	0x3fc56195	1.5420405
32	0x3fd0d698	1.6315489
33	0x3f92f612	1.1481345
34	0x3f823dc7	1.0175103
35	0x3e265a8e	0.16245481
36	0x3f9c697b	1.221969
37	0xbe74b16d	-0.23895808
38	0x3f7dbe2f	0.9911832
39	0x3e336018	0.17517126
40	0x3f7330cc	0.94996333
41	0x3f87984b	1.0593351
42	0x3e1d101b	0.15338175
43	0xbf41087a	-0.7540356
44	0x3f3fa068	0.74854136
45	0xbec5a537	-0.3860261
46	0xbf98b865	-1.1931273
47	0x3f9e030c	1.234468
48	0x3f668d3f	0.90059274
49	0x3fa26087	1.2685708
50	0x3f6cded7	0.92527527
51	0x3f4f1bf8	0.8090205
52	0xbf78e481	-0.9722367
53	0x3f4d864e	0.8028306
54	0x3f9f3eef	1.2441081
55	0xbe67f4bb	-0.22651951
56	0xbfa7324c	-1.3062224
57	0x3fcce65f	1.6007804
58	0x3f47b2a4	0.7800696
59	0x3f973644	1.1813436
60	0xbe91dfcb	-0.28491053
61	0xbfa13dfc	-1.2597041
62	0x3f89be75	1.0761248
63	0xbe5aea8c	-0.21378535
64	0xbf1b56a7	-0.60679096
65	0xbd000972	-0.031259008
66	0xbe007ce6	-0.12547645
67	0x3f0e95ea	0.556975
68	0x3f742017	0.95361465
69	0x3f7f9e81	0.9985123
70	0xbe48f2ab	-0.1962382
71	0x3ef525e7	0.4788048
72	0x3f05cfbc	0.522701
73	0x3dc298bd	0.09501789
74	0x3f8b2af6	1.0872486
75	0x3ed66859	0.41876486
76	0x3ee34bd0	0.44393778
77	0xbfb79cd3	-1.4344734
78	0x3f26a591	0.65096384
79	0xbd307959	-0.043084476
80	0x3fb22d7b	1.392013
81	0x3ed663ed	0.41873112
82	0xbe8bbe5c	-0.2729367
83	0xbfae84a7	-1.3634232
84	0xbe61d5d8	-0.22054231
85	0x3f848924	1.0354352
86	0xbf011fd7	-0.5043921
87	0xbf51d9e4	-0.819731
88	0x3f3e6b4a	0.7438246
89	0x3f82d131	1.022009
90	0x3f73110d	0.9494789
91	0x3e424294	0.1897071
92	0x3f2375a1	0.6385136
93	0xbf7f6a4a	-0.9977156
94	0x3eb7370b	0.35784182
95	0x3faaf033	1.3354553
96	0x3f1e39da	0.61807024
97	0xbfaf857e	-1.3712614
98	0xbfa1e158	-1.2646894
99	0x3e6e66f4	0.23281461

hidden_size.bias f4 [10]
0	0x3f6050ad	0.876231
1	0x3f791f36	0.9731325
2	0xbe82eade	-0.25569814
3	0x3ea366ca	0.3191436
4	0x3cf87856	0.030330818
5	0x3d43db22	0.047816403
6	0xbdfd7d94	-0.12377468
7	0xbf377ad1	-0.7167178
8	0x3ddfbaad	0.109242775
9	0x3e935f92	0.28783852

output_size.weight f4 [10, 10]
0	0xbf904127	-1.1269883
1	0x3ed0bcaa	0.4076894
2	0xbd237228	-0.03990379
3	0x3f2e2a8b	0.68033665
4	0xbf33c248	-0.70218325
5	0x3d6a7c5a	0.057247497
6	0xbf714bdd	-0.94256383
7	0x3f24e125	0.64406043
8	0xbf67a7d0	-0.90490437
9	0xbf920ba2	-1.14098
10	0x3ce31087	0.027717842
11	0xbf3897f9	-0.7210689
12	0x3e957033	0.29187164
13	0xbd21ae73	-0.03947301
14	0x3e628680	0.2212162
15	0xbdec697b	-0.11543556
16	0x3f3afee6	0.73045194
17	0xbf3d915b	-0.7404992
18	0x3e9e5d59	0.30930594
19	0xbf83fec5	-1.0312124
20	0x3f2b7f3b	0.66991013
21	0xbfabe3f5	-1.3428942
22	0xbe78b575	-0.2428797
23	0x3e69a98d	0.22818585
24	0xbe9c0048	-0.30468965
25	0xbfade9d8	-1.3586988
26	0x3f2f435b	0.6846215
27	0xbfbab98f	-1.4587878
28	0xbf51ef21	-0.82005507
29	0xbe058a0a	-0.13040939
30	0xbd6c1c1f	-0.057644006
31	0xbf1feb83	-0.6246874
32	0xbe6c08ca	-0.23050228
33	0xbfcdeaf9	-1.6087333
34	0x3eeae6b4	0.45879138
35	0x3f165c7c	0.5873487
36	0x3ed57284	0.4168893
37	0xbf8540c4	-1.041039
38	0x3f09f582	0.5389024
39	0xbf9e521e	-1.236881
40	0x3f2cf5b4	0.67562413
41	0x3eb4315c	0.35193908
42	0xbe97609e	-0.295659
43	0x3e6a2600	0.22866058
44	0x3cf67e85	0.030089626
45	0x3ef5ff9f	0.48046586
46	0xbfa8f48f	-1.3199633
47	0xbffc29a1	-1.9700204
48	0xbf7fdb26	-0.9994377
49	0xbed84052	-0.42236573
50	0x3f183452	0.59454834
51	0x3f0962af	0.53666204
52	0xbe9a0f80	-0.3008995
53	0xbf0d85b8	-0.55282164
54	0xbfa421d6	-1.2822826
55	0xbfee2e19	-1.8607818
56	0xbfb77bed	-1.4334694
57	0xbf569c46	-0.83832204
58	0x3f64fd73	0.8944923
59	0x3f6af600	0.91781616
60	0x3db2d9a4	0.08732918
61	0xbed37ae7	-0.41304705
62	0x3d94e79c	0.072707385
63	0x3f145f7c	0.579582
64	0xbfbd9185	-1.4810034
65	0xbf90a30c	-1.1299758
66	0xbe8d885f	-0.27643105
67	0x3f0cf4f3	0.5506126
68	0xbf8adda8	-1.0848894
69	0x3e8ab88b	0.2709392
70	0xbeee4fe4	-0.46545327
71	0x3e408187	0.18799411
72	0x3e7aa7ba	0.24478045
73	0xbf76ab74	-0.96355367
74	0x3e4ab2af	0.19794725
75	0x3e7f1aac	0.24912518
76	0xbf619f17	-0.88133377
77	0xbe8fdedc	-0.28099716
78	0x3ee1b15f	0.44080636
79	0x3f17c217	0.5928053
80	0xbec00930	-0.3750701
81	0xbf0f512a	-0.5598322
82	0x3e81bc03	0.25338754
83	0x3e657f33	0.22411804
84	0x3d2a711f	0.041611787
85	0xbf2724dc	-0.6529062
86	0xbe90118d	-0.2813839
87	0x3e926d02	0.2859879
88	0x3ebd05bc	0.36918437
89	0x3f02a255	0.5102895
90	0xbfd1e0dd	-1.6396748
91	0x3e622c49	0.22087206
92	0xbc287e20	-0.010283977
93	0x3db0af28	0.086271584
94	0x3f4aca70	0.79215145
95	0x3ea4a455	0.32156625
96	0xbf8077b7	-1.0036534
97	0xbedf8cf8	-0.43662238
98	0x3ee11973	0.4396473
99	0xbf48d2c1	-0.78446585

output_size.bias f4 [10]
0	0x3e86059d	0.26176158
1	0xbed3173d	-0.41228667
2	0xbe222d90	-0.15837693
3	0x3baf88e9	0.005356897
4	0x3ee87a8f	0.45406005
5	0x3f1c415f	0.6103725
6	0xbd86fd30	-0.065912604
7	0xbec34864	-0.38141167
8	0xbe65026d	-0.22364207
9	0xbe0649e5	-0.13114126

exp_avg f4 [10, 66]
0	0xb4ec1659	-4.3974686e-07
1	0xb54dfbaa	-7.673467e-07
2	0x3447b8bb	1.8600524e-07
3	0xb5fd5f99	-1.8877791e-06
4	0xb343876a	-4.5525134e-08
5	0xb635fc45	-2.7117942e-06
6	0x35639f1c	8.4795624e-07
7	0xb5294a01	-6.3065096e-07
8	0xb44d8f50	-1.914425e-07
9	0xb4c2fc86	-3.631905e-07
10	0x350195c1	4.8274165e-07
11	0xb5d347f2	-1.5741664e-06
12	0xb6235be7	-2.4342387e-06
13	0x359d6113	1.1725664e-06
14	0xb5d347f2	-1.5741664e-06
15	0xb41ecf76	-1.479037e-07
16	0x3444b758	1.8320623e-07
17	0xb580b081	-9.588113e-07
18	0x3452a60e	1.9618184e-07
19	0xb51425ab	-5.518911e-07
20	0x00000000	0.0
21	0xb41ecf76	-1.479037e-07
22	0x00000000	0.0
23	0x3481ebab	2.4199593e-07
24	0xb5bda3f9	-1.412932e-06
25	0x344da40f	1.9151797e-07
26	0xb5e0e440	-1.675573e-06
27	0xb5d5aa26	-1.5919256e-06
28	0x3497c5ab	2.8269764e-07
29	0xb5d4130e	-1.5800777e-06
30	0xb5382f61	-6.8614287e-07
31	0xb343876a	-4.5525134e-08
32	0x3488d140	2.5484223e-07
33	0xb54dd178	-7.667327e-07
34	0x325cb2a8	1.2846307e-08
35	0xb4a0acc9	-2.992804e-07
36	0xb1b1b9f8	-5.17252e-09
37	0x3452a60e	1.9618184e-07
38	0xb028c270	-6.1394356e-10
39	0xb5fd5f99	-1.8877791e-06
40	0xb55fb292	-8.333383e-07
41	0x00000000	0.0
42	0x325cb2a8	1.2846307e-08
43	0xb6235be7	-2.4342387e-06
44	0x3497c5ab	2.8269764e-07
45	0xb5f978c2	-1.8587091e-06
46	0xb5f978c2	-1.8587091e-06
47	0xb3ff0096	-1.18744694e-07
48	0xb1b1b9f8	-5.17252e-09
49	0x361e1f67	2.3562113e-06
50	0xb3ff0096	-1.18744694e-07
51	0x325eeb59	1.2975613e-08
52	0xb51425ab	-5.518911e-07
53	0xb5b8f331	-1.3779846e-06
54	0xb55fb292	-8.333383e-07
55	0xb47db65f	-2.3628807e-07
56	0x344da40f	1.9151797e-07
57	0xb30c5ac1	-3.267883e-08
58	0x36155693	2.2253123e-06
59	0x36079850	2.0205225e-06
60	0x3481ebab	2.4199593e-07
61	0x34beb2de	3.55204e-07
62	0xb5382f61	-6.8614287e-07
63	0xb624f5e4	-2.4581032e-06
64	0x3410ba58	1.3478837e-07
65	0xb49f4f25	-2.9673643e-07
66	0xb5a4a114	-1.2265832e-06
67	0xb444dbfd	-1.8333954e-07
68	0x32c1a322	2.2542341e-08
69	0x34405001	1.7910499e-07
70	0x33fb7bbc	1.17106055e-07
71	0xb465781e	-2.1370985e-07
72	0xb52aee6a	-6.3676873e-07
73	0xb515c7a4	-5.579734e-07
74	0xb38d977a	-6.5933776e-08
75	0x353ef1a3	7.1132143e-07
76	0x32c1a322	2.2542341e-08
77	0x3439bca6	1.7298098e-07
78	0x34f18200	4.4984336e-07
79	0xb419ec01	-1.4335093e-07
80	0x3439bca6	1.7298098e-07
81	0x341a927a	1.4395656e-07
82	0x3318053c	3.539502e-08
83	0x3530ff56	6.593667e-07
84	0x00000004	6e-45
85	0x00000000	0.0
86	0x3318053c	3.539502e-08
87	0x341a927a	1.4395656e-07
88	0x00000000	0.0
89	0x33057238	3.1070357e-08
90	0x35e1316a	1.6778188e-06
91	0xb5305be4	-6.569883e-07
92	0x35973fc9	1.1268941e-06
93	0x35ed2516	1.766867e-06
94	0xb4cfa48d	-3.867648e-07
95	0x362bbb3e	2.5589975e-06
96	0xb3e7d564	-1.0795591e-07
97	0x33fb7bbc	1.17106055e-07
98	0x3289e5f5	1.6053471e-08
99	0xb4386183	-1.717181e-07
100	0xb280fe7b	-1.5016886e-08
101	0xb4386183	-1.717181e-07
102	0xb101d198	-1.889111e-09
103	0x00000004	6e-45
104	0xb247a79d	-1.1621435e-08
105	0x34405001	1.7910499e-07
106	0x32c1a322	2.2542341e-08
107	0x3318053c	3.539502e-08
108	0xb280fe7b	-1.5016886e-08
109	0x34f18200	4.4984336e-07
110	0xb4cfa48d	-3.867648e-07
111	0x22262de4	2.252149e-18
112	0x22262de4	2.252149e-18
113	0xb189e0c6	-4.0127786e-09
114	0xb101d198	-1.889111e-09
115	0xb4eb3799	-4.3812614e-07
116	0xb189e0c6	-4.0127786e-09
117	0x00000004	6e-45
118	0x00000000	0.0
119	0x3439bca6	1.7298098e-07
120	0x32c1a322	2.2542341e-08
121	0xb7035f43	-7.830388e-06
122	0xb5305be4	-6.569883e-07
123	0x33db3c1e	1.02089174e-07
124	0xb512e4c9	-5.4722165e-07
125	0xb547e914	-7.447245e-07
126	0x33057238	3.1070357e-08
127	0xb61290d7	-2.1840003e-06
128	0xb419ec01	-1.4335093e-07
129	0xb4903149	-2.685795e-07
130	0xb5778cd3	-9.2219597e-07
131	0x00000000	0.0
132	0xb5274f4d	-6.2327746e-07
133	0x3536b189	6.805863e-07
134	0xb6294950	-2.5225636e-06
135	0x352105ec	5.998579e-07
136	0xb400fc74	-1.2012771e-07
137	0xb57daa9f	-9.449813e-07
138	0x350cc107	5.2434956e-07
139	0xb5666dca	-8.584144e-07
140	0xb36ca245	-5.5095615e-08
141	0xb5e371ce	-1.694594e-06
142	0xb507aeec	-5.0545964e-07
143	0x35b2b261	1.3313949e-06
144	0x3014d0f1	5.413901e-10
145	0xb1a6693a	-4.8431987e-09
146	0x35b2b261	1.3313949e-06
147	0xb43c0dac	-1.7513838e-07
148	0xb59954d1	-1.1424073e-06
149	0xb657f722	-3.2181347e-06
150	0xb59c0bb2	-1.162631e-06
151	0x34bb5860	3.4895766e-07
152	0xb50f772a	-5.344506e-07
153	0xb43c0dac	-1.7513838e-07
154	0x00000000	0.0
155	0xb50b328b	-5.1855085e-07
156	0xb532eed7	-6.6657725e-07
157	0x347c79f4	2.3513695e-07
158	0xb55a1dbf	-8.1254615e-07
159	0xb4fd4671	-4.7176175e-07
160	0x3441e0a5	1.8056251e-07
161	0x35c79c9b	1.4872234e-06
162	0xb50bb998	-5.205161e-07
163	0xb400fc74	-1.2012771e-07
164	0xb528b12e	-6.284271e-07
165	0x3536b189	6.805863e-07
166	0xb3ebf50e	-1.09876154e-07
167	0x3423c7dd	1.5253268e-07
168	0xb025a68a	-6.0263317e-10
169	0xb59c0bb2	-1.162631e-06
170	0x00000004	6e-45
171	0x352105ec	5.998579e-07
172	0xb5dcdcc1	-1.6455525e-06
173	0xb50f772a	-5.344506e-07
174	0xb3ebf50e	-1.09876154e-07
175	0x3014d0f1	5.413901e-10
176	0x3441e0a5	1.8056251e-07
177	0x32a14c61	1.87776e-08
178	0x32a14c61	1.87776e-08
179	0xb437e968	-1.7128116e-07
180	0xb025a68a	-6.0263317e-10
181	0xb61efcfd	-2.3691093e-06
182	0xb437e968	-1.7128116e-07
183	0xb514e4ea	-5.546741e-07
184	0x34bb5860	3.4895766e-07
185	0x3435357a	1.6876393e-07
186	0xb5dcdcc1	-1.6455525e-06
187	0x34ca5e6f	3.7694141e-07
188	0x347c79f4	2.3513695e-07
189	0xb476f6fd	-2.3000389e-07
190	0xb6a90077	-5.0366466e-06
191	0xb2805e72	-1.494411e-08
192	0xb50b328b	-5.1855085e-07
193	0xb68c9b5f	-4.1904127e-06
194	0x326f6425	1.3934401e-08
195	0xb65f5423	-3.3278563e-06
196	0xb59ed247	-1.1833116e-06
197	0xb6075d96	-2.0171042e-06
198	0x353af8b9	6.965234e-07
199	0x332c2c3f	4.0087112e-08
200	0x32997213	1.786342e-08
201	0x359cce3c	1.1682928e-06
202	0x341857b9	1.4188016e-07
203	0x3562fca5	8.4559207e-07
204	0xb5856d04	-9.941e-07
205	0x353af8b9	6.965234e-07
206	0xb444d1b5	-1.8330213e-07
207	0x33bcc53c	8.790309e-08
208	0xb49e5bc9	-2.9496576e-07
209	0x3416eb1f	1.4055375e-07
210	0x32f51035	2.8529124e-08
211	0xb59afb8b	-1.1547103e-06
212	0x3416eb1f	1.4055375e-07
213	0x34c2c7d2	3.6280704e-07
214	0x349b72a5	2.8954415e-07
215	0x34b172d0	3.3052356e-07
216	0x00000000	0.0
217	0x32dc9f09	2.5683692e-08
218	0x349b72a5	2.8954415e-07
219	0x34c2c7d2	3.6280704e-07
220	0x00000000	0.0
221	0xb46dd084	-2.2148203e-07
222	0x362a3f06	2.5368658e-06
223	0x0000000d	1.8e-44
224	0x36397f1f	2.7641142e-06
225	0x35f978bd	1.8587085e-06
226	0xb4bfd3a8	-3.5730523e-07
227	0x355fe614	8.340878e-07
228	0xb535418d	-6.7523143e-07
229	0x341857b9	1.4188016e-07
230	0xb4ad53c1	-3.22847e-07
231	0x332c2c3f	4.0087112e-08
232	0xb3d9adfb	-1.0136497e-07
233	0x33044b18	3.0801942e-08
234	0xb160f280	-3.2734135e-09
235	0x00000000	0.0
236	0x00000000	0.0
237	0x359cce3c	1.1682928e-06
238	0x3362e9ae	5.2832256e-08
239	0x349b72a5	2.8954415e-07
240	0xb3d9adfb	-1.0136497e-07
241	0x32f51035	2.8529124e-08
242	0xb4bfd3a8	-3.5730523e-07
243	0x344bf0de	1.8993475e-07
244	0x344bf0de	1.8993475e-07
245	0x332a74b3	3.9687347e-08
246	0xb160f280	-3.2734135e-09
247	0xb61198a3	-2.169553e-06
248	0x332a74b3	3.9687347e-08
249	0x00000000	0.0
250	0x32dc9f09	2.5683692e-08
251	0x3416eb1f	1.4055375e-07
252	0x3362e9ae	5.2832256e-08
253	0x33e21f98	1.0529692e-07
254	0x0000000d	1.8e-44
255	0x332e02ec	4.051519e-08

exp_avg_sq f4 [10, 66]
0	0x3199d06d	4.4765813e-09
1	0x3294d215	1.7325002e-08
2	0x30d6c103	1.5625407e-09
3	0x32b77219	2.135589e-08
4	0x31d1243e	6.086821e-09
5	0x3396aede	7.0167275e-08
6	0x3283949f	1.5317992e-08
7	0x313b3594	2.7242537e-09
8	0x329339bf	1.7139312e-08
9	0x33741b7d	5.6835677e-08
10	0x3046f5e5	7.238142e-10
11	0x328b8ee2	1.6246705e-08
12	0x32d74543	2.506079e-08
13	0x32dfffc2	2.6076922e-08
14	0x328b8ee2	1.6246705e-08
15	0x3217178a	8.794709e-09
16	0x30a1bd42	1.1768082e-09
17	0x34039c28	1.2257135e-07
18	0x3164c4f0	3.3290313e-09
19	0x31f111bf	7.0160406e-09
20	0x00000000	0.0
21	0x3217178a	8.794709e-09
22	0x00000000	0.0
23	0x3190db64	4.2158934e-09
24	0x32ca6384	2.356115e-08
25	0x3068fe77	8.4762725e-10
26	0x32c28b25	2.2647848e-08
27	0x32eecc5f	2.7799784e-08
28	0x321b0aeb	9.02467e-09
29	0x32b27dff	2.0779224e-08
30	0x33626aac	5.2716743e-08
31	0x31d1243e	6.086821e-09
32	0x319f9099	4.643948e-09
33	0x328d9679	1.6482987e-08
34	0x2fcb1126	3.693767e-10
35	0x32072a7b	7.867693e-09
36	0x3215c103	8.716827e-09
37	0x3164c4f0	3.3290313e-09
38	0x308448f9	9.625004e-10
39	0x32b77219	2.135589e-08
40	0x32945efe	1.7272665e-08
41	0x00000000	0.0
42	0x2fcb1126	3.693767e-10
43	0x32d74543	2.506079e-08
44	0x321b0aeb	9.02467e-09
45	0x33092eb1	3.1940264e-08
46	0x33092eb1	3.1940264e-08
47	0x306a3d21	8.5215573e-10
48	0x3215c103	8.716827e-09
49	0x33c02b9f	8.948631e-08
50	0x306a3d21	8.5215573e-10
51	0x310df11e	2.065526e-09
52	0x31f111bf	7.0160406e-09
53	0x3294e7ae	1.7334823e-08
54	0x32945efe	1.7272665e-08
55	0x3206b35a	7.840606e-09
56	0x3068fe77	8.4762725e-10
57	0x31d909c8	6.316643e-09
58	0x33df6ac7	1.04036694e-07
59	0x334510c8	4.58829e-08
60	0x3190db64	4.2158934e-09
61	0x31805a96	3.7355887e-09
62	0x33626aac	5.2716743e-08
63	0x346f2a94	2.22741e-07
64	0x324a2b1f	1.1767752e-08
65	0x30470c4d	7.241326e-10
66	0x332d9f0a	4.0424347e-08
67	0x32cb18dc	2.3643615e-08
68	0x2f3915aa	1.6833349e-10
69	0x309ebd3e	1.1549799e-09
70	0x300204b2	4.7300397e-10
71	0x33370e43	4.262098e-08
72	0x314fee8a	3.0258058e-09
73	0x30a8ad5a	1.2272878e-09
74	0x31e6fbea	6.7225203e-09
75	0x32a8cc61	1.9650715e-08
76	0x2f3915aa	1.6833349e-10
77	0x308492da	9.646002e-10
78	0x30a584c5	1.2043065e-09
79	0x30042e6c	4.808729e-10
80	0x308492da	9.646002e-10
81	0x3093caae	1.0753263e-09
82	0x30440679	7.1313583e-10
83	0x332512aa	3.843403e-08
84	0x2f8f3204	2.6047087e-10
85	0x00000000	0.0
86	0x30440679	7.1313583e-10
87	0x3093caae	1.0753263e-09
88	0x00000000	0.0
89	0x31438784	2.8453266e-09
90	0x322dfed1	1.0127864e-08
91	0x32ba4832	2.168608e-08
92	0x32108dbb	8.414129e-09
93	0x31ff4692	7.4294997e-09
94	0x3170c349	3.5035603e-09
95	0x32632fb5	1.3223986e-08
96	0x3098d208	1.111915e-09
97	0x300204b2	4.7300397e-10
98	0x31a633f7	4.8371436e-09
99	0x32509db0	1.21430475e-08
100	0x30e5f28f	1.6730882e-09
101	0x32509db0	1.21430475e-08
102	0x3180469a	3.7333168e-09
103	0x2f8f3204	2.6047087e-10
104	0x3263ae7d	1.3252813e-08
105	0x309ebd3e	1.1549799e-09
106	0x2f3915aa	1.6833349e-10
107	0x30440679	7.1313583e-10
108	0x30e5f28f	1.6730882e-09
109	0x30a584c5	1.2043065e-09
110	0x3170c349	3.5035603e-09
111	0x2ab95d46	3.2927323e-13
112	0x2ab95d46	3.2927323e-13
113	0x2f6e8406	2.1692878e-10
114	0x3180469a	3.7333168e-09
115	0x3181b31f	3.774758e-09
116	0x2f6e8406	2.1692878e-10
117	0x2f8f3204	2.6047087e-10
118	0x00000000	0.0
119	0x30a54f2b	1.2027831e-09
120	0x2f3915aa	1.6833349e-10
121	0x344f0144	1.9278838e-07
122	0x32ba4832	2.168608e-08
123	0x310be974	2.0359865e-09
124	0x32e6e94e	2.6881619e-08
125	0x3192ece3	4.27609e-09
126	0x31438784	2.8453266e-09
127	0x32c333f4	2.2724613e-08
128	0x300445b6	4.8120385e-10
129	0x33f29712	1.1296483e-07
130	0x31a459bd	4.7832303e-09
131	0x00000000	0.0
132	0x33176f1a	3.5258473e-08
133	0x320863b6	7.9389135e-09
134	0x3307ff73	3.1664467e-08
135	0x309468a6	1.079816e-09
136	0x3128f4fa	2.458647e-09
137	0x341ef844	1.4805215e-07
138	0x322a7a17	9.923062e-09
139	0x33165eb7	3.501074e-08
140	0x31f43fc8	7.1085857e-09
141	0x31ad305a	5.0404596e-09
142	0x30e97555	1.6986329e-09
143	0x315fb477	3.2553353e-09
144	0x2fffd310	4.65342e-10
145	0x30f5d214	1.7885804e-09
146	0x315fb477	3.2553353e-09
147	0x30e188c9	1.6409781e-09
148	0x32e9ce04	2.7218455e-08
149	0x33ac8d15	8.035037e-08
150	0x32de28be	2.5862729e-08
151	0x31dadadd	6.369517e-09
152	0x3241cdce	1.1280873e-08
153	0x30e188c9	1.6409781e-09
154	0x00000000	0.0
155	0x31fcf5ba	7.362101e-09
156	0x31e3912e	6.6230745e-09
157	0x3102c082	1.9026918e-09
158	0x31c8f49d	5.8485754e-09
159	0x319ca300	4.5587285e-09
160	0x31c025e3	5.5922427e-09
161	0x33432548	4.5435883e-08
162	0x325cd225	1.2853467e-08
163	0x3128f4fa	2.458647e-09
164	0x327ca16a	1.4705032e-08
165	0x32084479	7.931811e-09
166	0x31ddd1aa	6.4557826e-09
167	0x3113a679	2.1485944e-09
168	0x30deb65f	1.6204459e-09
169	0x32de28be	2.5862729e-08
170	0x2cfb6041	7.1445354e-12
171	0x309468a6	1.079816e-09
172	0x3328a2f7	3.9263764e-08
173	0x3241cdce	1.1280873e-08
174	0x31ddd1aa	6.4557826e-09
175	0x2fffd310	4.65342e-10
176	0x31c025e3	5.5922427e-09
177	0x2fbfca6f	3.4886535e-10
178	0x2fbfca6f	3.4886535e-10
179	0x3076af26	8.974318e-10
180	0x30deb65f	1.6204459e-09
181	0x333c1f06	4.3800377e-08
182	0x3076af26	8.974318e-10
183	0x321c5e01	9.101769e-09
184	0x31dadadd	6.369517e-09
185	0x32eb8742	2.7419109e-08
186	0x3328a2f7	3.9263764e-08
187	0x3288669b	1.5879143e-08
188	0x3102c082	1.9026918e-09
189	0x3207a61c	7.895803e-09
190	0x33e2e9cd	1.0566473e-07
191	0x32b04766	2.0521565e-08
192	0x31fcf5ba	7.362101e-09
193	0x33fb891b	1.1713038e-07
194	0x3114be9c	2.1645183e-09
195	0x3444c1ce	1.8324428e-07
196	0x332ee801	4.072354e-08
197	0x32f18d10	2.812024e-08
198	0x3119e537	2.2394724e-09
199	0x310d1d1b	2.0534745e-09
200	0x30b090fa	1.284689e-09
201	0x31922e8e	4.254452e-09
202	0x318067bc	3.7370835e-09
203	0x339101b7	6.7524006e-08
204	0x327cb8a3	1.4710312e-08
205	0x3119e528	2.239469e-09
206	0x3387cc81	6.3236264e-08
207	0x32adefb6	2.0248859e-08
208	0x2fd7b04f	3.9233547e-10
209	0x30c0bc0e	1.4023287e-09
210	0x318cf8f0	4.102837e-09
211	0x32538334	1.2311649e-08
212	0x30c0bc0e	1.4023287e-09
213	0x31763a2b	3.5830776e-09
214	0x2fb0dac6	3.216966e-10
215	0x332bee81	4.0030958e-08
216	0x00000000	0.0
217	0x30283e0d	6.1206223e-10
218	0x2fb0dac6	3.216966e-10
219	0x31763a2b	3.5830776e-09
220	0x00000000	0.0
221	0x31073cd8	1.9679671e-09
222	0x32ea8aa2	2.7304228e-08
223	0x27d5148c	5.9141653e-15
224	0x3338660b	4.2933646e-08
225	0x32d7c995	2.5120963e-08
226	0x3200a3d4	7.487831e-09
227	0x3331c05e	4.138598e-08
228	0x327f6282	1.4865352e-08
229	0x318067bc	3.7370835e-09
230	0x31347d19	2.6264557e-09
231	0x310d1d1b	2.0534745e-09
232	0x2ffba4d9	4.5773765e-10
233	0x30a11b68	1.1722081e-09
234	0x329baa02	1.8121685e-08
235	0x00000000	0.0
236	0x00000000	0.0
237	0x31922e8e	4.254452e-09
238	0x313ec53c	2.7760754e-09
239	0x2fb0dac6	3.216966e-10
240	0x2ffba4d9	4.5773765e-10
241	0x318cf8f0	4.102837e-09
242	0x3200a3d4	7.487831e-09
243	0x3161fb91	3.2884808e-09
244	0x3161fb91	3.2884808e-09
245	0x2fc686dd	3.6111816e-10
246	0x329baa02	1.8121685e-08
247	0x32f8a7cb	2.8947303e-08
248	0x2fc686dd	3.6111816e-10
249	0x00000000	0.0
250	0x30283e0d	6.1206223e-10
251	0x30c0bc0e	1.4023287e-09
252	0x313ec53c	2.7760754e-09
253	0x2f7359e4	2.2132657e-10
254	0x27d5148c	5.9141653e-15
255	0x318e9799	4.1499786e-09

exp_avg f4 [10]
0	0xb71353d4	-8.7814005e-06
1	0xb6484a5a	-2.98456e-06
2	0xb6c2e440	-5.8082223e-06
3	0xb78fb60e	-1.7131704e-05
4	0xb55fb199	-8.333241e-07
5	0xb75cc210	-1.3158206e-05
6	0xb74b6ade	-1.2124625e-05
7	0xb7a6bcd2	-1.9876668e-05
8	0xb59a02aa	-1.147467e-06
9	0xb7032e9b	-7.81906e-06

exp_avg_sq f4 [10]
0	0x351e9019	5.9069276e-07
1	0x34c3e6dd	3.6489556e-07
2	0x34d7ef8e	4.022117e-07
3	0x35a88a41	1.2557213e-06
4	0x3505a3fb	4.9784984e-07
5	0x355baa89	8.183202e-07
6	0x3515615c	5.56485e-07
7	0x36040c68	1.9676754e-06
8	0x35444363	7.311375e-07
9	0x3517c50f	5.653864e-07

exp_avg f4 [10, 10]
0	0xb61485ad	-2.2131528e-06
1	0x3657ccf3	3.2156793e-06
2	0xb6921fb5	-4.3548303e-06
3	0xb6c13161	-5.7575967e-06
4	0x3680ee71	3.8424555e-06
5	0xb716828f	-8.971095e-06
6	0xb71041c4	-8.598381e-06
7	0xb6a18d01	-4.814589e-06
8	0x36bd1fc6	5.636338e-06
9	0x34f6bf45	4.5960238e-07
10	0xb6a6260e	-4.9516157e-06
11	0xb5decdb5	-1.6600158e-06
12	0x35aeb4d6	1.301664e-06
13	0xb69bb4d7	-4.6404125e-06
14	0xb63c2fb1	-2.8041943e-06
15	0xb6f4d18c	-7.296161e-06
16	0xb68378f3	-3.9181846e-06
17	0xb63077e6	-2.6295834e-06
18	0x36105d41	2.1511953e-06
19	0xb53f8391	-7.13445e-07
20	0x00000000	0.0
21	0x00000000	0.0
22	0x00000000	0.0
23	0x00000000	0.0
24	0x00000000	0.0
25	0x00000000	0.0
26	0x00000000	0.0
27	0x00000000	0.0
28	0x00000000	0.0
29	0x00000000	0.0
30	0x36dbae87	6.5470263e-06
31	0xb6b20f84	-5.3066196e-06
32	0xb6d8c1e0	-6.4598717e-06
33	0xb698e0e5	-4.556134e-06
34	0xb6238c82	-2.437068e-06
35	0x368d0563	4.2027546e-06
36	0xb6a6ed04	-4.9747778e-06
37	0xb5a526f0	-1.230479e-06
38	0xb6da1d88	-6.500344e-06
39	0x35f8e913	1.8545273e-06
40	0xb613cc25	-2.2023535e-06
41	0xb693482c	-4.3893433e-06
42	0xb57c6bb2	-9.403403e-07
43	0x36214dbb	2.4036115e-06
44	0xb69ab26e	-4.6103296e-06
45	0x3660b00c	3.3481074e-06
46	0x3658f44f	3.2328714e-06
47	0xb6125790	-2.1806663e-06
48	0xb6a36fa1	-4.870774e-06
49	0xb6c97b77	-6.00464e-06
50	0xb620d4e8	-2.3965786e-06
51	0xb6131608	-2.191753e-06
52	0x36850bf9	3.9651027e-06
53	0xb6085afa	-2.0318535e-06
54	0xb69fca47	-4.7621174e-06
55	0x368bd89d	4.16774e-06
56	0x36e3023e	6.765388e-06
57	0xb6a1618f	-4.809531e-06
58	0xb60d8c4d	-2.1092303e-06
59	0xb6955201	-4.4500925e-06
60	0x35207af2	5.9783554e-07
61	0x361f1071	2.3702416e-06
62	0xb7151a95	-8.887281e-06
63	0xb5d86f5e	-1.6125666e-06
64	0x354726d6	7.418979e-07
65	0xb5474150	-7.422832e-07
66	0xb5397df3	-6.910115e-07
67	0xb6be1e11	-5.6659414e-06
68	0xb717d0ed	-9.048946e-06
69	0xb719f57a	-9.176665e-06
70	0x36089d50	2.0357147e-06
71	0xb5208eaf	-5.9812277e-07
72	0xb6937a92	-4.3952105e-06
73	0x363df018	2.8302948e-06
74	0xb6b53d32	-5.4013444e-06
75	0xb4b9327d	-3.449567e-07
76	0x34fc71bf	4.702142e-07
77	0x3717b64f	9.042748e-06
78	0xb6c0a618	-5.7413818e-06
79	0xb5a842ec	-1.2536452e-06
80	0xb6f7aba0	-7.3811534e-06
81	0xb4d736b1	-4.0086664e-07
82	0xb626180a	-2.474992e-06
83	0x36c9f240	6.0184684e-06
84	0xb58fdc48	-1.071844e-06
85	0xb6d29ae7	-6.2765207e-06
86	0xb5649416	-8.515211e-07
87	0x3655ce46	3.185954e-06
88	0xb6ad70df	-5.1689417e-06
89	0xb6cdbfe2	-6.131814e-06
90	0xb71637d3	-8.953694e-06
91	0xb502a327	-4.866619e-07
92	0x34408377	1.792922e-07
93	0x368831e1	4.0589225e-06
94	0xb66a7a5b	-3.4939937e-06
95	0xb71cb585	-9.340588e-06
96	0xb6940620	-4.4114568e-06
97	0x365aba87	3.2593105e-06
98	0x36dff9bf	6.674992e-06
99	0xb612233a	-2.17762e-06

exp_avg_sq f4 [10, 10]
0	0x33c502eb	9.174058e-08
1	0x33b5e620	8.470329e-08
2	0x33cb39c2	9.46343e-08
3	0x33ac032b	8.0099504e-08
4	0x33fc9da8	1.1763342e-07
5	0x33f2015f	1.12692526e-07
6	0x33ce3fba	9.604214e-08
7	0x33b1ba6e	8.276116e-08
8	0x33f19b4e	1.1250687e-07
9	0x34282c2e	1.5662292e-07
10	0x340bfd39	1.3037506e-07
11	0x33cab6c1	9.439601e-08
12	0x3371a886	5.6265456e-08
13	0x32f9f003	2.909656e-08
14	0x3414798f	1.3827797e-07
15	0x345a4c35	2.0330556e-07
16	0x33c7530c	9.281766e-08
17	0x32d3b2af	2.4644889e-08
18	0x337fc77e	5.955325e-08
19	0x33dc94aa	1.027159e-07
20	0x00000000	0.0
21	0x00000000	0.0
22	0x00000000	0.0
23	0x00000000	0.0
24	0x00000000	0.0
25	0x00000000	0.0
26	0x00000000	0.0
27	0x00000000	0.0
28	0x00000000	0.0
29	0x00000000	0.0
30	0x34648072	2.1280883e-07
31	0x33b912ae	8.6181316e-08
32	0x33ce06c0	9.59385e-08
33	0x3367eba5	5.3998196e-08
34	0x343852f6	1.7166516e-07
35	0x34382046	1.7148076e-07
36	0x33ebea46	1.0985654e-07
37	0x332dbcca	4.0451404e-08
38	0x34058025	1.2433209e-07
39	0x342fc747	1.6370642e-07
40	0x339b51ff	7.232665e-08
41	0x339cbfb2	7.299185e-08
42	0x3321c5af	3.7665526e-08
43	0x3334ba87	4.207916e-08
44	0x33c8a6ca	9.3435645e-08
45	0x3412f911	1.368792e-07
46	0x339099f4	6.7335264e-08
47	0x320d1e00	8.214101e-09
48	0x33ab9860	7.990525e-08
49	0x33aaf955	7.961595e-08
50	0x34535a44	1.9683745e-07
51	0x3339ae14	4.3231992e-08
52	0x3353705e	4.9229463e-08
53	0x332d9540	4.0415443e-08
54	0x34081bb0	1.267606e-07
55	0x348efca3	2.6633379e-07
56	0x33cd1346	9.549562e-08
57	0x337dd93e	5.9103733e-08
58	0x33616b0f	5.2484264e-08
59	0x3405f657	1.2476208e-07
60	0x33f7c13d	1.15369836e-07
61	0x334b6ca6	4.7363436e-08
62	0x3443f543	1.8250016e-07
63	0x33a7af6b	7.808452e-08
64	0x33bfee21	8.937446e-08
65	0x340f949f	1.3371981e-07
66	0x33a7c1af	7.811774e-08
67	0x33e89702	1.083081e-07
68	0x341768ef	1.4101145e-07
69	0x34c7d9a1	3.7224984e-07
70	0x341a032f	1.4343526e-07
71	0x3392710a	6.8192165e-08
72	0x34177d72	1.4108608e-07
73	0x33de3f56	1.0349201e-07
74	0x34588f26	2.0168645e-07
75	0x3472088e	2.2541118e-07
76	0x341df69e	1.4711483e-07
77	0x33c09ac9	8.968852e-08
78	0x339f32ac	7.4132316e-08
79	0x343f56e5	1.7819873e-07
80	0x34466e40	1.8480296e-07
81	0x3388371e	6.343019e-08
82	0x33e0d1c2	1.04689676e-07
83	0x3402f252	1.2195349e-07
84	0x342550a6	1.5396162e-07
85	0x34823d52	2.4259003e-07
86	0x33f29e57	1.1297805e-07
87	0x33adb234	8.088355e-08
88	0x33ca1607	9.410365e-08
89	0x341ecf04	1.4790209e-07
90	0x34a2a48e	3.029458e-07
91	0x33a9b608	7.902787e-08
92	0x33a877d3	7.8449055e-08
93	0x33699da7	5.4392924e-08
94	0x3493176e	2.739793e-07
95	0x34b5e11e	3.3877672e-07
96	0x33ce1376	9.5961624e-08
97	0x3317a068	3.5303316e-08
98	0x3469b8d7	2.176706e-07
99	0x34686ba7	2.1645847e-07

exp_avg f4 [10]
0	0xb6a6f28e	-4.9754226e-06
1	0xb6c72de5	-5.936005e-06
2	0x00000000	0.0
3	0xb5e33693	-1.6928701e-06
4	0xb500d116	-4.7987976e-07
5	0xb57d111c	-9.427474e-07
6	0xb5170099	-5.6252753e-07
7	0x36c32c10	5.8165824e-06
8	0xb40c4363	-1.3063031e-07
9	0xb61e116e	-2.355398e-06

exp_avg_sq f4 [10]
0	0x34dd1ac1	4.1183924e-07
1	0x349eb9cf	2.9564987e-07
2	0x00000000	0.0
3	0x34a07d3d	2.9893445e-07
4	0x34829235	2.4320767e-07
5	0x34dece19	4.1500678e-07
6	0x34bd5b5c	3.5270466e-07
7	0x34d7b1b0	4.0176155e-07
8	0x352a5cfb	6.346524e-07
9	0x35143226	5.520727e-07

exp_avg f4 [10, 10]
0	0x35e557c2	1.708737e-06
1	0xb5fadc2f	-1.8690533e-06
2	0x00000000	0.0
3	0xb7119ab8	-8.678697e-06
4	0x35c5825b	1.4715582e-06
5	0xb56f5264	-8.915433e-07
6	0x34cfe13a	3.8720628e-07
7	0xb6ad04dc	-5.1563675e-06
8	0x36255da2	2.4641417e-06
9	0x35f19c04	1.8001306e-06
10	0xb64e48bb	-3.0738727e-06
11	0x36bc47b1	5.6111826e-06
12	0x00000000	0.0
13	0xb763875a	-1.3561768e-05
14	0xb6f0a1e4	-7.171404e-06
15	0xb63d2b15	-2.8188272e-06
16	0xb7acf909	-2.0619964e-05
17	0xb6180909	-2.2655024e-06
18	0xb62e42d1	-2.5966913e-06
19	0x3731576b	1.0570376e-05
20	0xb66fefba	-3.5753314e-06
21	0x364638c4	2.953734e-06
22	0x00000000	0.0
23	0x36690e50	3.4728037e-06
24	0x3605c9ff	1.9936122e-06
25	0x368a4838	4.121128e-06
26	0xb5392cb5	-6.898293e-07
27	0x367365f8	3.6269175e-06
28	0x360bc325	2.0826203e-06
29	0xb5a5e40b	-1.2359827e-06
30	0x355e18ce	8.273754e-07
31	0xb4ae3ee2	-3.245578e-07
32	0x00000000	0.0
33	0x36e56354	6.836295e-06
34	0xb64e650a	-3.0755205e-06
35	0xb6820ff9	-3.8761614e-06
36	0x3565f857	8.567053e-07
37	0x35e89619	1.7329031e-06
38	0xb5fb73d9	-1.8734673e-06
39	0x358badf8	1.0406939e-06
40	0xb6df2aec	-6.6509147e-06
41	0xb689318c	-4.088686e-06
42	0x00000000	0.0
43	0xb66149d2	-3.3570582e-06
44	0x3684780e	3.9478828e-06
45	0xb6951060	-4.4424523e-06
46	0x371edb43	9.468585e-06
47	0x36e4841d	6.8103095e-06
48	0x375b78f9	1.3081583e-05
49	0x36c625ac	5.9052454e-06
50	0xb7974313	-1.8031837e-05
51	0xb6fbb222	-7.5011203e-06
52	0x00000000	0.0
53	0xb2c75a27	-2.3207646e-08
54	0x36d8bd6b	6.459353e-06
55	0x36e98a04	6.9600082e-06
56	0x3586053f	9.985305e-07
57	0x35d02020	1.5506557e-06
58	0xb6fee408	-7.596336e-06
59	0xb76788c1	-1.3800513e-05
60	0xb7420d32	-1.1566373e-05
61	0xb60cca65	-2.0979435e-06
62	0x00000000	0.0
63	0xb78f9cc7	-1.7119934e-05
64	0x36e35b0a	6.7757255e-06
65	0x3670894b	3.5842702e-06
66	0xb6574a25	-3.2080654e-06
67	0xb6e0105b	-6.6776242e-06
68	0x36b8a168	5.5024175e-06
69	0xb60840c3	-2.0303276e-06
70	0xb48148e2	-2.4081152e-07
71	0xb68ada7d	-4.138156e-06
72	0x00000000	0.0
73	0x37b6bcb1	2.1783957e-05
74	0xb5f1aa80	-1.8005521e-06
75	0xb6bcbaf7	-5.624602e-06
76	0x35dc9c75	1.6436812e-06
77	0x3609526b	2.0462564e-06
78	0xb72b8ee7	-1.0225666e-05
79	0xb72e2af3	-1.0381208e-05
80	0x37f074c9	2.8664612e-05
81	0x3748b415	1.1962858e-05
82	0x00000000	0.0
83	0x3737646e	1.0931033e-05
84	0x363cba11	2.8122488e-06
85	0x375aaabd	1.3033566e-05
86	0x373257ed	1.0630099e-05
87	0xb659656b	-3.2394553e-06
88	0x35e17adb	1.6799562e-06
89	0xb51385da	-5.4956547e-07
90	0x374a65ef	1.20638715e-05
91	0xb4dd6e31	-4.1244633e-07
92	0x00000000	0.0
93	0xb40e0bb9	-1.3229045e-07
94	0xb73d33cd	-1.1277339e-05
95	0xb726076a	-9.896097e-06
96	0x3518c203	5.6906737e-07
97	0x35db4543	1.6336929e-06
98	0xb622e62b	-2.4273857e-06
99	0x37128328	8.732815e-06

exp_avg_sq f4 [10, 10]
0	0x3367c6af	5.396458e-08
1	0x3473cc17	2.2705386e-07
2	0x00000000	0.0
3	0x359c29bc	1.1635052e-06
4	0x330454e5	3.0810856e-08
5	0x33c208ac	9.0354064e-08
6	0x312916ae	2.4605629e-09
7	0x34888c1d	2.543392e-07
8	0x3328d2eb	3.9307377e-08
9	0x332d474f	4.0344556e-08
10	0x35fc3c80	1.8793071e-06
11	0x345f9435	2.0822411e-07
12	0x00000000	0.0
13	0x35b0caed	1.3172081e-06
14	0x35c8ad0b	1.4951523e-06
15	0x35e03ab8	1.670639e-06
16	0x35a66217	1.2396512e-06
17	0x3372fdcb	5.657584e-08
18	0x359d7a50	1.1733009e-06
19	0x34838c96	2.450294e-07
20	0x3514d1cf	5.543961e-07
21	0x32e88241	2.7067587e-08
22	0x00000000	0.0
23	0x349f97df	2.972656e-07
24	0x33a4b3a9	7.669525e-08
25	0x33449be7	4.57766e-08
26	0x3441e71e	1.8058606e-07
27	0x3221ac3a	9.410593e-09
28	0x3383b537	6.133126e-08
29	0x3382b1fe	6.085973e-08
30	0x34e1800d	4.2002685e-07
31	0x33153f4c	3.4749334e-08
32	0x00000000	0.0
33	0x345bc253	2.0466659e-07
34	0x354d642b	7.6514215e-07
35	0x3566718d	8.5846915e-07
36	0x34b25c56	3.3222267e-07
37	0x319d6041	4.580244e-09
38	0x35161655	5.591185e-07
39	0x336c9179	5.508034e-08
40	0x360528bf	1.9842262e-06
41	0x35116d14	5.417544e-07
42	0x00000000	0.0
43	0x35cd9d99	1.5319557e-06
44	0x35017ca4	4.823762e-07
45	0x359572a8	1.1134734e-06
46	0x340ba952	1.3006982e-07
47	0x330f82d6	3.3413777e-08
48	0x34b6eaef	3.4071078e-07
49	0x349e9654	2.9539171e-07
50	0x351fb1df	5.949095e-07
51	0x351f3220	5.930506e-07
52	0x00000000	0.0
53	0x3517d3ae	5.655992e-07
54	0x33d7ef93	1.0055296e-07
55	0x340522f1	1.2399302e-07
56	0x322898bb	9.813614e-09
57	0x33c6c358	9.255626e-08
58	0x3568043f	8.6432914e-07
59	0x35a578d3	1.2328622e-06
60	0x351b6a61	5.78968e-07
61	0x3456f058	2.001774e-07
62	0x00000000	0.0
63	0x36084f6b	2.0311807e-06
64	0x33813f34	6.018527e-08
65	0x33bc5547	8.769944e-08
66	0x3350947e	4.8563827e-08
67	0x34b11b75	3.2988797e-07
68	0x340f855d	1.336643e-07
69	0x34ed2a0c	4.4175283e-07
70	0x3540a1bb	7.176092e-07
71	0x35a6ca48	1.2426835e-06
72	0x00000000	0.0
73	0x35d00587	1.5498816e-06
74	0x35a37d87	1.218098e-06
75	0x35cbd388	1.5186242e-06
76	0x33a5b744	7.716747e-08
77	0x348e71d2	2.6532376e-07
78	0x361095cc	2.1544865e-06
79	0x35d07d9a	1.5533763e-06
80	0x3618b96d	2.2757697e-06
81	0x359e5740	1.179731e-06
82	0x00000000	0.0
83	0x36b01bdf	5.2484534e-06
84	0x3563620c	8.4706767e-07
85	0x355390db	7.881442e-07
86	0x34babb52	3.4781493e-07
87	0x3570d94c	8.9723176e-07
88	0x35ee27a8	1.7743923e-06
89	0x362fa102	2.617075e-06
90	0x34a1dc85	3.0149036e-07
91	0x355ae342	8.154203e-07
92	0x00000000	0.0
93	0x35686ca3	8.658482e-07
94	0x35928b24	1.0918343e-06
95	0x359342bd	1.0971777e-06
96	0x329f4950	1.8543375e-08
97	0x340a22b8	1.2864882e-07
98	0x35a2441e	1.2089765e-06
99	0x35001819	4.771878e-07

exp_avg f4 [10]
0	0x33c5001b	9.1735465e-08
1	0x357988ac	9.295861e-07
2	0x345ce67d	2.0572948e-07
3	0x33bb16a9	8.711988e-08
4	0xb62aec8a	-2.5469658e-06
5	0xb64078ea	-2.868061e-06
6	0xb54b8fea	-7.5832816e-07
7	0x36133de4	2.1940732e-06
8	0x366ce77e	3.5301487e-06
9	0xb56233c7	-8.4266907e-07

exp_avg_sq f4 [10]
0	0x3502f504	4.878532e-07
1	0x35252d5a	6.1533285e-07
2	0x34a4a60c	3.0668195e-07
3	0x34af7bb9	3.268631e-07
4	0x35a5787d	1.2328525e-06
5	0x359d1025	1.170211e-06
6	0x34ef5a0c	4.4582737e-07
7	0x355a3c16	8.1298765e-07
8	0x355c6443	8.2102287e-07
9	0x35257e23	6.1650843e-07
